assignment1/full_batch_model.tar (torch, 4322 bytes, 6 tensors)

hidden1.weight f4 [16, 3]
-0.07754232 0.34629226 0.20901859 0.41449466 0.68796295 -0.2723199 1.1096399 -0.6929985
-0.10518021 -0.5160884 0.30371878 0.43364057 -0.4219151 -0.06294467 0.5292795 -0.29374892
-0.269594 -0.49920306 -0.27484366 0.46724805 -0.70626485 0.42108566 0.55871844 0.5030008
-0.24019529 0.90611106 0.20855527 0.24013323 -0.35277015 0.07929824 -0.35066214 -0.688582
-0.35650396 0.3168577 -0.21211462 0.63119537 0.09117682 -0.16358632 -0.79587555 0.33191293
-0.065603726 0.54553825 0.0402197 -0.2306595 0.6798698 0.8457109 0.22168696 -0.1089386
00000000: 82ce 9ebd 384d b13e f808 563e a538 d43e
00000010: 571e 303f 846d 8bbe ae08 8e3f 5a68 31bf
00000020: b968 d7bd 5f1e 04bf 0781 9b3e 2306 de3e
00000030: 4205 d8be 23e9 80bd dc7e 073f 4266 96be
00000040: 3a08 8abe 8b97 ffbe 4fb8 8cbe 233b ef3e
00000050: c6cd 34bf 8a98 d73e 2c08 0f3f a9c4 003f
00000060: c1f5 75be e5f6 673f 838f 553e 7ce5 753e
00000070: 4a9e b4be 1e67 a23d fd89 b3be e946 30bf
00000080: b087 b6be 2c3b a23e 9334 59be 0596 213f
00000090: eaba ba3d 2c83 27be 80be 4bbf 7ef0 a93e
000000a0: 3f5b 86bd 65a8 0b3f 6abd 243d 0132 6cbe
000000b0: f20b 2e3f 8280 583f e801 633e 331b dfbd

hidden1.bias f4 [16]
0.7987245 0.2674193 0.114379 0.44220605 0.29488227 0.36304572 -0.31231117 0.026539244
0.47176963 0.15164518 0.69260865 0.602402 0.51603425 0.26391846 -0.26691496 0.47977293
00000000: 3579 4c3f 2feb 883e 8a3f ea3d d568 e23e
00000010: cffa 963e 21e1 b93e 40e7 9fbe d468 d93c
00000020: ca8b f13e e048 1b3e cd4e 313f 0437 1a3f
00000030: d21a 043f 5220 873e 14a9 88be cca4 f53e

hidden2.weight f4 [16, 16]
0.054863345 -0.03806084 0.021345377 0.092918195 0.026596777 0.096491754 0.43364844 -0.15916263
0.05647131 0.34993455 -0.15346107 0.1305722 -0.2504248 -0.0627639 -0.1533805 -0.042519417
-0.06531901 -0.36683866 -0.14044122 -0.07274301 0.06588829 -0.067489184 -0.15225257 -0.35356978
-0.08112601 -0.074970916 0.26772994 -0.19327737 0.08555887 0.09354971 0.12580197 -0.11769537
0.24246848 0.19252121 -0.15686364 0.0044970377 -0.099203855 -0.5605837 0.19340716 0.1799051
-0.014015374 -0.22228368 -0.24911487 0.47715583 -0.34470403 0.12143541 -0.22671308 0.33248153
0.26103163 -0.25688916 0.30494055 0.047512878 0.2623661 0.06781574 0.09799119 -0.18699479
0.18175662 -0.15600389 -0.14075406 -0.13021405 -0.43607435 0.29826993 -0.3726712 -0.038000528
-0.018056659 -0.32374877 -0.17352061 0.2411586 0.22279985 -0.13204326 0.13994177 -0.09516104
-0.11677359 0.17120808 0.24379018 0.19032255 -0.059882414 0.34886685 -0.47987622 0.2077355
-0.1938598 0.3527379 0.19703089 -0.059175435 0.31609303 -0.050858166 0.24965206 0.4934748
0.06502001 -0.27900934 -0.062663734 -0.03347893 -0.40095586 0.20649165 -0.074354224 0.13942681
0.22757074 -0.010789718 -0.046809476 -0.059480254 -0.053265322 0.15062213 -0.026398683 -0.11037694
0.33243546 -0.67883074 -0.034368515 -0.19690378 0.0037896107 -0.29280874 0.07253296 0.1876938
0.24187183 0.10151318 -0.7444134 -0.19207437 0.2289153 -0.1390002 -0.12723468 -0.38129854
0.2185974 -0.16585271 -0.010814005 0.28212145 0.14861625 0.28159124 -0.13310492 -0.38692465
0.038585987 -0.10989295 -0.31853616 -0.1282158 -0.3090028 0.02237884 -0.29131377 -0.4277545
-0.25322843 0.15924588 0.0018063127 0.13665715 0.15755376 0.041210283 0.018583966 0.36756888
0.14476177 -0.29733622 -0.04309445 -0.11057521 0.12161365 -0.05117057 -0.2910799 0.017036604
-0.47273892 0.35756457 0.16063811 0.20666693 -0.1504543 0.25163445 -0.7313116 -0.24904467
0.45652828 0.11520898 -0.09623307 -0.46478954 -0.69863373 -0.047551163 -0.17409623 -0.34180364
-0.23511069 0.070109405 0.0328856 0.3176458 0.21616495 0.17818697 -0.31400323 0.22405858
-0.04660679 -0.28445122 -0.14394507 0.009362085 -0.16729842 -0.077156514 -0.25147647 0.21709242
-0.23895012 -0.2092215 0.0024238832 -0.2384649 0.048364818 0.052580934 0.08938906 0.04496315
0.21484667 -0.035684604 -0.43643892 0.12527385 0.063760795 0.3060564 -0.37165433 -0.50195765
0.17501613 -0.3349884 0.14239456 -0.13375019 0.13200614 -0.3808137 0.18915668 -0.040395375
0.106088646 0.33860135 -0.15501565 0.059896328 -0.15915376 -0.40950066 0.04354031 0.14260116
-0.05045565 -0.20565249 -0.27302465 0.11534076 0.083827995 0.059188046 -0.30830288 0.4116695
0.39160895 -0.57114846 -0.11028216 0.14486668 -0.16573323 0.31132218 -0.14642881 -0.39817497
-0.07589993 0.006894828 0.117918044 0.40113416 -0.1897866 0.3652038 -0.7525622 -0.3738871
0.14465427 0.14942423 -0.0544643 -0.05338292 0.0348605 0.07159806 -0.32956755 0.052413754
0.19170448 0.20229235 0.08911787 0.11307805 -0.21855865 0.27045187 -0.24068566 0.13513888
00000000: 63b8 603d afe5 1bbd 80dc ae3c e54b be3d
00000010: 7ce1 d93c 789d c53d 2b07 de3e 87fb 22be
00000020: 764e 673d 9f2a b33e e624 1dbe b8b4 053e
00000030: ae37 80be 5c8a 80bd c70f 1dbe d728 2ebd
00000040: f9c5 85bd 47d2 bbbe d3cf 0fbe 4afa 94bd
00000050: 71f0 863d c537 8abd 19e8 1bbe 1907 b5be
00000060: 6525 a6bd 5a8a 99bd e613 893e 81ea 45be
00000070: 7d39 af3d fe96 bf3d 3bd2 003e 450a f1bd
00000080: a849 783e 4824 453e dda0 20be e35b 933b
00000090: 642b cbbd 6a82 0fbf 870c 463e 0b39 383e
000000a0: bda0 65bc 559e 63be f817 7fbe c54d f43e
000000b0: 0c7d b0be 21b3 f83d 7927 68be 053b aa3e
000000c0: f0a5 853e fa86 83be 2b21 9c3e dd9c 423d
000000d0: d954 863e fbe2 8a3d 9baf c83d 907b 3fbe
000000e0: 681e 3a3e 7cbf 1fbe d521 10be d556 05be
000000f0: 2345 dfbe d6b6 983e c2ce bebe 71a6 1bbd
00000100: 8feb 93bc 66c2 a5be 63af 31be 48f2 763e
00000110: a525 643e 5936 07be e54c 0f3e cbe3 c2bd
00000120: fe26 efbd 2c51 2f3e 22a4 793e eae3 423e
00000130: 4347 75bd ad9e b23e 56b2 f5be 9db8 543e
00000140: 2f83 46be 109a b43e 77c2 493e f161 72bd
00000150: f2d6 a13e a750 50bd caa4 7f3e bba8 fc3e
00000160: 3629 853d 50da 8ebe d855 80bd 3421 09bd
00000170: 164a cdbe 8c72 533e 0747 98bd e7c5 0e3e
00000180: 4e08 693e 5bc7 30bc 4bbb 3fbd 91a1 73bd
00000190: bd2c 5abd b03c 1a3e 0d42 d8bc 4e0d e2bd
000001a0: fb34 aa3e dac7 2dbf 00c6 0cbd 25a1 49be
000001b0: 1e5b 783b 07eb 95be 298c 943d ce32 403e
000001c0: 40ad 773e 24e6 cf3d e091 3ebf 25af 44be
000001d0: c668 6a3e 1256 0ebe cf49 02be 9039 c3be
000001e0: ffd7 5f3e 4bd5 29be 392d 31bc 3972 903e
000001f0: dc2e 183e ba2c 903e a84c 08be fd1a c6be
00000200: 570c 1e3d 8e0f e1bd 2c17 a3be 014b 03be
00000210: 9d35 9ebe d453 b73c 1427 95be a302 dbbe
00000220: 28a7 81be 5a11 233e ccc1 ec3a daef 0b3e
00000230: c655 213e 1dcc 283d 673d 983c fd31 bc3e
00000240: 6e3c 143e 743c 98be ce83 30bd 4175 e2bd
00000250: 9410 f93d 3b98 51bd 6d08 95be 5990 8b3c
00000260: d60a f2be b412 b73e 517e 243e 7fa0 533e
00000270: b110 1abe 3bd6 803e 3d37 3bbf 9105 7fbe
00000280: 13be e93e b0f2 eb3d d815 c5bd e5f8 edbe
00000290: a9d9 32bf 02c5 42bd 4846 32be e300 afbe
000002a0: dbc0 70be 8595 8f3d 0db3 063d 78a2 a23e
000002b0: 585a 5d3e a576 363e 08c5 a0be 9d6f 653e
000002c0: c3e6 3ebd 97a3 91be 5666 13be 6e63 193c
000002d0: 4750 2bbe 3c04 9ebd 86c1 80be 7a4d 5e3e
000002e0: 57af 74be 293e 56be 03da 1e3b 2530 74be
000002f0: 301a 463d 1b5f 573d 9d11 b73d 482b 383d
00000300: c400 5c3e 052a 12bd ec74 dfbe ca47 003e
00000310: 0595 823d 6db3 9c3e 7a49 bebe 4c80 00bf
00000320: 6e37 333e 9983 abbe e1cf 113e cff5 08be
00000330: 9e2c 073e 03fa c2be 4ab2 413e 9f75 25bd
00000340: 0145 d93d 285d ad3e 6cbc 1ebe da55 753d
00000350: 34f9 22be 12aa d1be 5357 323d 0a06 123e
00000360: 95aa 4ebd 9196 52be e3c9 8bbe c737 ec3d
00000370: 03ae ab3d 2a6f 723d e0d9 9dbe 58c6 d23e
00000380: f880 c83e c936 12bf 9ddb e1bd ee57 143e
00000390: f9b5 29be 9f65 9f3e 6ff1 15be 97dd cbbe
000003a0: 6c71 9bbd 02ee e13b 047f f13d 7561 cd3e
000003b0: 6b57 42be fefb ba3e eba7 40bf 216e bfbe
000003c0: 4020 143e aa02 193e f515 5fbd 0ca8 5abd
000003d0: e2c9 0e3d 01a2 923d 14bd a8be ceaf 563d
000003e0: 2e4e 443e ba25 4f3e 6e83 b63d 7795 e73d
000003f0: d7cd 5fbe ab78 8a3e 4d76 76be d961 0a3e

hidden2.bias f4 [16]
-0.08780761 0.4487717 0.45883578 0.2691247 -0.10047112 -0.09702062 0.22031814 0.18285345
0.29751173 0.4378429 0.2056936 0.060108215 0.37804255 0.3196615 0.047683474 -0.022492442
00000000: 7ad4 b3bd 67c5 e53e 86ec ea3e b6ca 893e
00000010: cdc3 cdbd bfb2 c6bd 149b 613e ef3d 3b3e
00000020: 7553 983e f22c e03e 58a1 523e 0834 763d
00000030: cb8e c13e acaa a33e bf4f 433d 1242 b8bc

output.weight f4 [3, 16]
0.25861096 -0.11147229 0.16356637 -0.08869864 0.3149913 -0.37244332 -0.23336324 -0.4081288
0.26758084 -0.12975615 0.32512873 -0.04283836 -0.37024686 0.23741944 -0.41151208 0.19598551
-0.26868698 -0.29249203 0.2563038 0.12250678 -0.34252056 -0.5520523 0.29486272 0.07762451
-0.31319493 -0.39766887 -0.23871993 0.16551389 0.23352547 0.36174753 -0.24920693 0.14822702
-0.08364272 -0.26028904 0.32690907 0.46422452 0.3182391 -0.27545512 -0.41494524 0.12585478
-0.2719122 0.21825694 -0.30001482 -0.060004603 -0.18051696 0.09831395 0.2660814 0.14449032
00000000: a868 843e 954b e4bd f17d 273e a2a7 b5bd
00000010: 8a46 a13e e4b0 bebe c6f6 6ebe 42f6 d0be
00000020: 5b00 893e ccde 04be 4677 a63e 4777 2fbd
00000030: ff90 bdbe 151e 733e b6b1 d2be 6db0 483e
00000040: 5791 89be 84c1 95be 403a 833e d6e4 fa3d
00000050: db5e afbe 4d53 0dbf 3ff8 963e 99f9 9e3d
00000060: 165b a0be 419b cbbe ff72 74be 797c 293e
00000070: 4d21 6f3e f936 b93e 1a30 7fbe d3c8 173e
00000080: e04c abbd 9b44 85be a060 a73e d6ae ed3e
00000090: 3cf0 a23e 7408 8dbe b473 d4be 13e0 003e
000000a0: 1338 8bbe bf7e 5f3e 8b9b 99be 63c7 75bd
000000b0: 70d9 38be d358 c93d d23b 883e 45f5 133e

output.bias f4 [3]
0.092800856 -0.012624818 -0.224407
00000000: 600e be3d 53d8 4ebc f3ca 65be
