assignment1/small_batch_model.tar (torch, 4332 bytes, 6 tensors)

hidden1.weight f4 [16, 3]
000000 08 9d 12 bb a7 22 9a 3e a6 99 31 bf 33 a2 3e 3f
       -0.002237143 0.30104563 -0.69375074 0.74466246
000010 cd e0 12 bf 18 8f c0 3e d6 93 a7 3e 68 d0 11 bf
       -0.5737427 0.37609172 0.32729977 -0.5695863
000020 e5 17 83 be d7 5e f1 be 2b 7f 2c be 08 0c 5d bf
       -0.25604168 -0.4714267 -0.16845386 -0.86346483
000030 f5 56 1a 3e 7a 8e c4 bd 5c 7f 17 be 4f 46 31 3f
       0.15072234 -0.09597488 -0.14794677 0.6924791
000040 19 8c 42 be 7e 87 d9 be c8 15 cd be 7f ff 24 bf
       -0.18998756 -0.42486185 -0.4005568 -0.64452356
000050 8c cc f7 3d eb ab 08 3e 1d b0 66 3f 73 f9 86 3e
       0.12099561 0.13346832 0.9011248 0.2636219
000060 7d 55 5b bf 1f ce 0e 3f b0 c6 2a 3e aa 6b 11 3e
       -0.8567732 0.55783266 0.16677356 0.14201227
000070 86 7d e6 be 7b 44 5e bf 17 d9 c2 be 40 2b 27 3f
       -0.45017642 -0.8682324 -0.3805625 0.6530037
000080 19 f2 42 3f b2 14 4e 3d 9b 41 6c 3f 5d 17 12 bd
       0.7615066 0.050312705 0.92287606 -0.035666812
000090 92 1c 67 be 65 a4 30 3f 29 a2 f9 be 02 be 55 3f
       -0.22569492 0.69000846 -0.4875653 0.83493054
0000a0 4b d4 86 bd e0 78 3d 3f 8f 8f 83 bf 61 80 be bd
       -0.065834604 0.74012566 -1.0278186 -0.0930183
0000b0 9e d7 84 3d c2 17 0b 3f 63 20 08 3f 20 fc 91 be
       0.06486438 0.54333127 0.5317442 -0.2851267

hidden1.bias f4 [16]
000000 ec f0 22 3e 57 3f 3f be 02 d2 34 3e 51 94 5c 3e
       0.15912217 -0.18676506 0.17658237 0.21540953
000010 c3 70 5d 3f b0 7f 43 3e ef 87 1a 3e ea 11 93 be
       0.86500186 0.19091678 0.15090917 -0.28724605
000020 4e 46 9a 3e 33 37 38 3e d6 12 d3 3e e0 83 54 3e
       0.30131763 0.17989807 0.41225308 0.20753431
000030 d6 8f 44 3e ff 55 7a 3e eb 8f 89 3c c5 23 0e 3e
       0.19195494 0.24446867 0.016792258 0.13880832

hidden2.weight f4 [16, 16]
000000 1b 3a 98 be 6d 08 c5 be 30 62 bd bc 57 a7 6c bc
       -0.2973183 -0.3848299 -0.023118109 -0.014444194
000010 ef 5b 45 3e 07 c9 1f bd 57 44 17 3e 23 0f a3 be
       0.19273351 -0.039010074 0.14772163 -0.31847486
000020 30 20 dd 3d 3c a6 83 be b6 4c e1 3e 86 4d 10 3e
       0.10797155 -0.25712764 0.44003838 0.14092073
000030 97 7f bb be b8 b4 f1 3e 04 cc ba be 22 a9 78 3e
       -0.3662078 0.4720819 -0.36483777 0.24283269
000040 b2 24 08 be 8f cb 05 bd 27 0a 54 bf cb c7 46 be
       -0.13295248 -0.03266483 -0.8282799 -0.19412152
000050 58 d0 ba 3e af dd e0 be 25 a3 d4 be df 4c 1d be
       0.3648708 -0.4391913 -0.4153072 -0.15361355
000060 16 fd ac 3e 72 b0 3a bf a3 df 0a be 41 af 83 3d
       0.3378684 -0.72925484 -0.13561873 0.064299114
000070 c0 86 4b be 45 ab 6c 3d 16 2f 11 be fc e6 e9 bd
       -0.19875622 0.057780523 -0.14178118 -0.1142101
000080 43 06 83 be 7a 43 e3 be ff 5f 83 3c a1 d2 b6 bb
       -0.25590715 -0.44387418 0.016036985 -0.005579308
000090 a2 b2 c1 3e d7 58 d4 be bb 13 8c 3e 4c 3b b5 bd
       0.378316 -0.4147403 0.27358803 -0.088492006
0000a0 7f 5d 2b 3e 28 b6 10 be b5 99 f5 bd 70 cd 1b 3c
       0.16734885 -0.14131987 -0.11992208 0.009509429
0000b0 cc 4d 71 bc 6f f5 b2 bd 7c 0d 6e be bb d6 b1 bf
       -0.014728021 -0.08738219 -0.23247331 -1.3893656
0000c0 d4 c9 70 bd 08 a3 9c bd dc fe 9d be 99 b6 db 3c
       -0.05878623 -0.07648283 -0.30858505 0.026820468
0000d0 e8 42 55 bd b5 2d fa 3e b9 c0 fa bd c9 23 85 be
       -0.05206576 0.48862997 -0.1224379 -0.26003864
0000e0 a9 d2 c8 bd c7 8a 8b be a9 b5 0a 3d 1a 56 20 be
       -0.09805805 -0.27254316 0.03386465 -0.15657845
0000f0 b5 57 17 be 6d 55 b9 be 0e 3f 2e c0 ee 80 e0 b7
       -0.14779551 -0.36197987 -2.7225986 -2.6762918e-05
000100 85 b7 00 3e 00 a7 b4 bc 0d d2 18 be 1f 99 32 be
       0.12570007 -0.022052288 -0.14923878 -0.17441224
000110 4a a8 b0 3c 69 2b 01 be 58 99 cf be ea e0 0f bf
       0.021564621 -0.12614216 -0.4054668 -0.56202567
000120 d3 b4 90 bd b5 0b 0a be 21 08 a0 3e dd 59 72 3e
       -0.070657395 -0.13481028 0.31256202 0.23667093
000130 2e 4d a7 3d 64 49 f3 3e 5c f0 26 be ab 4d 60 3e
       0.08169018 0.4751693 -0.16302627 0.21904628
000140 f9 6e 44 bc ba 0f a9 3e ca 38 93 be c9 80 f6 3e
       -0.011989349 0.3301981 -0.28754264 0.4814513
000150 bc 5b 37 3e 73 26 58 be 6a de 95 3c 3c 96 86 3e
       0.17906088 -0.21108417 0.018294532 0.26286495
000160 6b 72 8e be 3e 9f 42 be f1 3c 04 3e 4d 6c 54 bf
       -0.2782167 -0.19006059 0.12913872 -0.82977754
000170 7c e3 19 bf 0e 32 7b 3a 41 9d 79 be 4a ae e1 bd
       -0.6011274 0.0009582349 -0.24376394 -0.11019571
000180 8a 9c b4 bd 10 40 2a 3e ba d5 fd 3e 9b c4 8f bd
       -0.0881892 0.16626 0.49577123 -0.070199214
000190 21 85 1a 3c d8 9a 12 bf 08 2b 49 3e 68 3e 5d be
       0.0094311545 -0.5726752 0.19645321 -0.21605837
0001a0 18 ae 34 3e 8b 9b 97 be c4 96 eb 3e f5 77 76 be
       0.17644536 -0.29610857 0.46013463 -0.24069197
0001b0 07 8c 7f be 83 2d 33 bc 43 61 5a 3e 5c 99 a6 3c
       -0.2495576 -0.010936144 0.21326165 0.0203368
0001c0 81 7c b2 be 13 03 57 3a ec 91 dc 3e 56 2b fc be
       -0.34860614 0.0008202057 0.4308008 -0.49251813
0001d0 52 5b df 3e 5b 0c d5 be ff b0 7e 3e 34 07 31 3e
       0.4362436 -0.4161099 0.24872206 0.17287904
0001e0 92 03 e1 3e 82 c1 0f bf 89 60 31 bc 23 54 9b be
       0.43948036 -0.56154644 -0.010826238 -0.3033763
0001f0 64 2a cd be 09 ec e7 bc 81 81 a4 3e 9a 60 8b be
       -0.40071404 -0.028310793 0.32130054 -0.2722214
000200 bd 42 59 bf 37 67 25 be 65 4d 3f 3e 89 8b ca be
       -0.8486746 -0.16152655 0.18681867 -0.39559582
000210 7f 26 0c 3e 9e 3b 82 3e dd 80 a2 3e c0 d6 1b be
       0.1368656 0.2543611 0.3173894 -0.1521864
000220 ad 21 cf be a4 61 bf 3c b7 a6 71 3e 4d 78 ec 3d
       -0.4045538 0.023361988 0.23598753 0.11546383
000230 31 89 48 be e0 c3 36 bd 69 c7 d2 bd 00 fe a9 be
       -0.19583584 -0.044620395 -0.10291941 -0.332016
000240 0a bd e2 bc f0 6c 30 3e 5f 79 55 3e 58 c8 e0 3e
       -0.027678031 0.17229056 0.2084708 0.4390285
000250 92 0e d7 3d 22 6e 16 3e 57 3d 9e bc 91 ad 64 be
       0.10500826 0.1469045 -0.019316358 -0.22331835
000260 63 ca bf be c4 55 f0 be ca ff 16 be f4 41 7a 3e
       -0.37459096 -0.46940434 -0.14746013 0.24439222
000270 b7 74 cb 3e 24 ef a0 be d5 e0 57 be 11 9f 96 be
       0.39737484 -0.3143245 -0.2108186 -0.29418233
000280 4d 8f 1c 3e 55 f3 28 3e af 99 c3 bc e3 73 8e 3e
       0.1528904 0.16499074 -0.023876993 0.2782279
000290 40 7b 20 3d 59 0c 9c be 01 ea 87 3e 8f 7e 94 3d
       0.03918004 -0.3047817 0.26545718 0.07250702
0002a0 32 77 66 3e bf d6 51 bd b8 38 e9 3e a3 0c 0b bf
       0.22506407 -0.05123019 0.45551085 -0.5431616
0002b0 41 e6 52 be fd 8e 7a be cb d2 87 bd a5 1a 2e be
       -0.20595647 -0.24468608 -0.066320024 -0.17002352
0002c0 e4 21 c6 3b 3f 1f 1f 3f 5c 7d 9d be 4a d9 be 3d
       0.0060465205 0.6215705 -0.30759704 0.09318788
0002d0 64 96 4d 3e a7 b0 e4 be fc 00 35 be 0a a5 0f bf
       0.200769 -0.44666025 -0.17676157 -0.56111205
0002e0 cc e9 67 bc 0d 8a 54 be 8d 33 f4 3e d4 d9 73 3e
       -0.014154863 -0.20755787 0.4769558 0.23813564
0002f0 e1 71 02 3e e2 57 6e bd 6a 82 77 3d 23 b1 b4 3e
       0.12738754 -0.05818928 0.060427107 0.35291395
000300 bd f6 e5 bd fb f5 a3 be b8 1f bc 3d 4d b9 ed bc
       -0.11228702 -0.32023606 0.09185737 -0.029019022
000310 2d 3e af 3e 0d 27 0c 3e 8f d3 a1 be 4d 3c b6 3e
       0.34227124 0.13686772 -0.3160672 0.3559288
000320 2f ba 86 be 09 72 f1 3d 54 91 bb be 42 af 72 be
       -0.26313922 0.117893286 -0.36634314 -0.23699668
000330 0a a6 56 bf 17 43 6f 3e 25 6f 80 be 90 a6 96 bd
       -0.83847106 0.23365436 -0.25084797 -0.07355988
000340 9c 76 ae be 64 72 e7 be 60 34 91 be ae 11 63 3e
       -0.34074867 -0.4520446 -0.2836027 0.22174713
000350 3e 8d 9d 3e e4 91 f5 bd be c6 df bd b9 5f 21 bd
       0.30771822 -0.11990717 -0.10926579 -0.03939793
000360 3e ae 90 3e eb 7c cb 3c a5 70 32 be 2c c2 1d 3d
       0.28257936 0.024839839 -0.17425783 0.038515255
000370 3a 5b 19 be 97 59 51 bf 55 d9 d0 be b2 90 1b be
       -0.14976206 -0.8177733 -0.4079081 -0.15191916
000380 5c 9c 79 3e 43 0d 91 be 53 37 99 3e c6 83 0e bf
       0.24376053 -0.2833043 0.29925022 -0.5566982
000390 79 c0 16 3e cd 19 b9 3d a8 2b af be 4c 48 14 bf
       0.1472186 0.09038124 -0.34212995 -0.57922816
0003a0 a0 18 cb be f6 74 94 be 4e d5 ef 3c cc 7b de 3e
       -0.39667225 -0.28995484 0.029276516 0.43453825
0003b0 30 54 16 3e ff d5 8d 3e dc 4a 29 bd 01 c6 e7 3d
       0.14680552 0.2770233 -0.041331157 0.11317063
0003c0 0c ae f9 bd 28 23 21 3e d2 0a 36 bf a3 6c 9b be
       -0.121914 0.15736067 -0.7111026 -0.3035632
0003d0 a4 17 f5 3c 8b 72 28 3d 5e de 0b bf 9f 7a b2 be
       0.0299185 0.04112486 -0.5463618 -0.34859177
0003e0 92 23 49 3c a1 1e 14 be c7 33 74 3e f2 56 dc bd
       0.012276547 -0.14464809 0.23847876 -0.10758771
0003f0 50 a7 fd 3e 0d 78 78 3e 6b 96 d1 be b2 cd 2a 3d
       0.49541712 0.24264546 -0.40935072 0.041700073

hidden2.bias f4 [16]
000000 60 db 6c bd c6 a5 d0 3e b4 c0 a5 3e fe 34 14 3f
       -0.0578264 0.40751475 0.32373583 0.5789336
000010 63 a5 ce be d2 b3 d3 3e d1 6f a1 be 48 5e 4f 3e
       -0.40360555 0.4134813 -0.31530622 0.20250809
000020 d5 1e cd 3e 39 00 63 3e 74 4c a1 3e 5a ba 0b 3e
       0.40062585 0.22168054 0.31503642 0.13645306
000030 f9 04 f4 3e d9 67 d5 3e 41 97 11 3e d5 23 ab 3e
       0.47660044 0.41680792 0.14217855 0.33425775

output.weight f4 [3, 16]
000000 26 92 7c 3e 70 00 12 be a7 45 d2 be 9b 2b f3 3e
       0.24665126 -0.1425798 -0.41068766 0.47494206
000010 af 5c 86 be 4f 21 cb 3d 6c 00 cb 3e 13 04 13 be
       -0.26242587 0.099184625 0.3964876 -0.14357023
000020 73 ff 02 3e 06 67 a7 3b ed 7f f2 be fb 73 9e be
       0.12792759 0.005108717 -0.47363225 -0.3094786
000030 83 42 a6 3e 82 b2 cd be 1d d2 d6 3e 65 be 94 3e
       0.3247262 -0.40175253 0.4195718 0.2905151
000040 3c 88 4d 3d 98 66 a8 3e 06 0e 66 be 14 59 5d 3d
       0.05017875 0.32890773 -0.22466287 0.05404003
000050 e2 91 f5 be 3a 22 26 bf 3d ec aa 3d 84 15 03 be
       -0.47962862 -0.64895976 0.0834584 -0.12801176
000060 a0 42 b1 be 2d 66 d3 3c dc 03 36 be 78 d1 d9 3e
       -0.34621143 0.025805557 -0.1777491 0.42542624
000070 ff 33 a6 be 95 8f f0 3d de 0a 90 3e 12 60 ec 3e
       -0.32461545 0.11746136 0.2813329 0.46167046
000080 18 81 fd 3e 59 32 ac 3e a4 b1 3b 3e 74 0d 1f be
       0.49512553 0.33632162 0.18329483 -0.15532476
000090 9c 92 bc be 92 bc 50 3e 3e 52 fb be 5e 8e 06 3f
       -0.36830604 0.20384434 -0.49086183 0.52560985
0000a0 1c 8a cc 3e 6a 96 d8 be 1e a6 9b 3d 01 15 85 3e
       0.3994912 -0.42302257 0.07600044 0.25992587
0000b0 6b f4 11 3d fa 5c ac be 9d f7 1b 3e 0d fd 1c 3e
       0.035633486 -0.33664685 0.15231176 0.15330906

output.bias f4 [3]
000000 d0 7e ec 3d 4d e9 04 3c 62 f9 25 bf
       0.11547625 0.008112264 -0.6483365
